
---Our Model parameters : 142784


---SID model parameters : 7760748


---LSE Model parameters : 1224


---FB2 Model parameters : 7224


---MSE model parameters : 73984


---FB1 model parameters : 60352

zeros org: 0
==========================================================================================
Layer (type:depth-idx)                   Output Shape              Param #
==========================================================================================
├─ResBlock: 1-1                          [-1, 64, 256, 512]        --
|    └─Sequential: 2-1                   [-1, 64, 256, 512]        --
|    |    └─Conv2d: 3-1                  [-1, 64, 256, 512]        36,992
|    |    └─LeakyReLU: 3-2               [-1, 64, 256, 512]        --
|    └─Sequential: 2-2                   [-1, 64, 256, 512]        --
|    |    └─Conv2d: 3-3                  [-1, 64, 256, 512]        36,992
├─Sequential: 1-2                        [-1, 12, 1024, 2048]      --
|    └─Sequential: 2-3                   [-1, 32, 256, 512]        --
|    |    └─Conv2d: 3-4                  [-1, 32, 256, 512]        4,672
|    └─Sequential: 2-4                   [-1, 192, 256, 512]       --
|    |    └─Conv2d: 3-5                  [-1, 192, 256, 512]       55,680
|    |    └─LeakyReLU: 3-6               [-1, 192, 256, 512]       --
├─PixelShuffle: 1-3                      [-1, 12, 1024, 2048]      --
├─Sequential: 1                          []                        --
|    └─PixelShuffle: 2-5                 [-1, 12, 1024, 2048]      --
├─Sequential: 1-4                        [-1, 12, 1024, 2048]      --
|    └─Conv2d: 2-6                       [-1, 12, 1024, 2048]      1,224
├─Sequential: 1-5                        [-1, 12, 1024, 2048]      --
|    └─Conv2d: 2-7                       [-1, 12, 1024, 2048]      7,224
├─PixelShuffle: 1-6                      [-1, 3, 2048, 4096]       --
==========================================================================================
Total params: 142,784
Trainable params: 142,784
Non-trainable params: 0
Total mult-adds (M): 0.42
==========================================================================================
Input size (MB): 32.00
Forward/backward pass size (MB): 736.00
Params size (MB): 0.54
Estimated Total Size (MB): 768.54
…
