
---Our Model parameters : 650688


---SID model parameters : 7760748


---LSE Model parameters : 1224


---FB2 Model parameters : 7224


---HSE model parameters : 634944


---HSEup model parameters : 7296

zeros org: 0
==========================================================================================
Layer (type:depth-idx)                   Output Shape              Param #
==========================================================================================
├─Sequential: 1-1                        [-1, 64, 64, 128]         --
|    └─Sequential: 2-1                   [-1, 128, 64, 128]        --
|    |    └─Conv2d: 3-1                  [-1, 128, 64, 128]        9,472
|    └─Sequential: 2-2                   [-1, 64, 64, 128]         --
|    |    └─Conv2d: 3-2                  [-1, 64, 64, 128]         73,856
├─RDB: 1-2                               [-1, 64, 64, 128]         --
|    └─Sequential: 2-3                   [-1, 192, 64, 128]        --
|    |    └─make_dense: 3-3              [-1, 96, 64, 128]         18,464
|    |    └─make_dense: 3-4              [-1, 128, 64, 128]        27,680
|    |    └─make_dense: 3-5              [-1, 160, 64, 128]        36,896
|    |    └─make_dense: 3-6              [-1, 192, 64, 128]        46,112
|    └─Sequential: 2-4                   [-1, 64, 64, 128]         --
|    |    └─Conv2d: 3-7                  [-1, 64, 64, 128]         12,352
├─RDB: 1-3                               [-1, 64, 64, 128]         --
|    └─Sequential: 2-5                   [-1, 224, 64, 128]        --
|    |    └─make_dense: 3-8              [-1, 96, 64, 128]         18,464
|    |    └─make_dense: 3-9              [-1, 128, 64, 128]        27,680
|    |    └─make_dense: 3-10             [-1, 160, 64, 128]        36,896
|    |    └─make_dense: 3-11             [-1, 192, 64, 128]        46,112
|    |    └─make_dense: 3-12             [-1, 224, 64, 128]        55,328
|    └─Sequential: 2-6                   [-1, 64, 64, 128]         --
|    |    └─Conv2d: 3-13                 [-1, 64, 64, 128]         14,400
├─RDB: 1-4                               [-1, 64, 64, 128]         --
|    └─Sequential: 2-7                   [-1, 224, 64, 128]        --
|    |    └─make_dense: 3-14             [-1, 96, 64, 128]         18,464
|    |    └─make_dense: 3-15             [-1, 128, 64, 128]        27,680
|    |    └─make_dense: 3-16             [-1, 160, 64, 128]        36,896
|    |    └─make_dense: 3-17             [-1, 192, 64, 128]        46,112
|    |    └─make_dense: 3-18             [-1, 224, 64, 128]        55,328
|    └─Sequential: 2-8                   [-1, 64, 64, 128]         --
|    |    └─Conv2d: 3-19                 [-1, 64, 64, 128]         14,400
├─Sequential: 1-5                        [-1, 64, 64, 128]         --
|    └─Conv2d: 2-9                       [-1, 64, 64, 128]         12,352
├─PixelShuffle: 1-6                      [-1, 4, 256, 512]         --
├─Sequential: 1                          []                        --
|    └─PixelShuffle: 2-10                [-1, 4, 256, 512]         --
├─Sequential: 1-7                        [-1, 192, 256, 512]       --
|    └─Conv2d: 2-11                      [-1, 192, 256, 512]       7,296
|    └─LeakyReLU: 2-12                   [-1, 192, 256, 512]       --
├─Sequential: 1-8                        [-1, 12, 1024, 2048]      --
├─PixelShuffle: 1-9                      [-1, 12, 1024, 2048]      --
├─Sequential: 1                          []                        --
|    └─PixelShuffle: 2-13                [-1, 12, 1024, 2048]      --
├─Sequential: 1-10                       [-1, 12, 1024, 2048]      --
|    └─Conv2d: 2-14                      [-1, 12, 1024, 2048]      1,224
├─Sequential: 1-11                       [-1, 12, 1024, 2048]      --
|    └─Conv2d: 2-15                      [-1, 12, 1024, 2048]      7,224
├─PixelShuffle: 1-12                     [-1, 3, 2048, 4096]       --
==========================================================================================
Total params: 650,688
Trainable params: 650,688
Non-trainable params: 0
Total mult-adds (M): 2.42
==========================================================================================
Input size (MB): 32.00
Forward/backward pass size (MB): 604.00
Params size (MB): 2.48
Estimated Total Size (MB): 638.48
…
