
---Our Model parameters : 678360


---SID model parameters : 7760748


---LSE Model parameters : 304


---FB2 Model parameters : 3624


---MSE model parameters : 37056


---FB1 model parameters : 0


---HSE model parameters : 634944


---HSEup model parameters : 2432

zeros org: 0
==========================================================================================
Layer (type:depth-idx)                   Output Shape              Param #
==========================================================================================
├─Sequential: 1-1                        [-1, 64, 64, 128]         --
|    └─Sequential: 2-1                   [-1, 128, 64, 128]        --
|    |    └─Conv2d: 3-1                  [-1, 128, 64, 128]        9,472
|    └─Sequential: 2-2                   [-1, 64, 64, 128]         --
|    |    └─Conv2d: 3-2                  [-1, 64, 64, 128]         73,856
├─RDB: 1-2                               [-1, 64, 64, 128]         --
|    └─Sequential: 2-3                   [-1, 192, 64, 128]        --
|    |    └─make_dense: 3-3              [-1, 96, 64, 128]         18,464
|    |    └─make_dense: 3-4              [-1, 128, 64, 128]        27,680
|    |    └─make_dense: 3-5              [-1, 160, 64, 128]        36,896
|    |    └─make_dense: 3-6              [-1, 192, 64, 128]        46,112
|    └─Sequential: 2-4                   [-1, 64, 64, 128]         --
|    |    └─Conv2d: 3-7                  [-1, 64, 64, 128]         12,352
├─RDB: 1-3                               [-1, 64, 64, 128]         --
|    └─Sequential: 2-5                   [-1, 224, 64, 128]        --
|    |    └─make_dense: 3-8              [-1, 96, 64, 128]         18,464
|    |    └─make_dense: 3-9              [-1, 128, 64, 128]        27,680
|    |    └─make_dense: 3-10             [-1, 160, 64, 128]        36,896
|    |    └─make_dense: 3-11             [-1, 192, 64, 128]        46,112
|    |    └─make_dense: 3-12             [-1, 224, 64, 128]        55,328
|    └─Sequential: 2-6                   [-1, 64, 64, 128]         --
|    |    └─Conv2d: 3-13                 [-1, 64, 64, 128]         14,400
├─RDB: 1-4                               [-1, 64, 64, 128]         --
|    └─Sequential: 2-7                   [-1, 224, 64, 128]        --
|    |    └─make_dense: 3-14             [-1, 96, 64, 128]         18,464
|    |    └─make_dense: 3-15             [-1, 128, 64, 128]        27,680
|    |    └─make_dense: 3-16             [-1, 160, 64, 128]        36,896
|    |    └─make_dense: 3-17             [-1, 192, 64, 128]        46,112
|    |    └─make_dense: 3-18             [-1, 224, 64, 128]        55,328
|    └─Sequential: 2-8                   [-1, 64, 64, 128]         --
|    |    └─Conv2d: 3-19                 [-1, 64, 64, 128]         14,400
├─Sequential: 1-5                        [-1, 64, 64, 128]         --
|    └─Conv2d: 2-9                       [-1, 64, 64, 128]         12,352
├─PixelShuffle: 1-6                      [-1, 4, 256, 512]         --
├─Sequential: 1                          []                        --
|    └─PixelShuffle: 2-10                [-1, 4, 256, 512]         --
├─Sequential: 1                          []                        --
|    └─PixelShuffle: 2-11                [-1, 4, 256, 512]         --
├─Sequential: 1-7                        [-1, 64, 256, 512]        --
|    └─Conv2d: 2-12                      [-1, 64, 256, 512]        2,432
├─Sequential: 1-8                        [-1, 4, 1024, 2048]       --
├─PixelShuffle: 1-9                      [-1, 4, 1024, 2048]       --
├─Sequential: 1                          []                        --
|    └─PixelShuffle: 2-13                [-1, 4, 1024, 2048]       --
├─Sequential: 1                          []                        --
|    └─PixelShuffle: 2-14                [-1, 4, 1024, 2048]       --
├─ResBlock: 1-10                         [-1, 64, 256, 512]        --
|    └─Sequential: 2-15                  [-1, 32, 256, 512]        --
|    |    └─Conv2d: 3-20                 [-1, 32, 256, 512]        18,496
|    |    └─LeakyReLU: 3-21              [-1, 32, 256, 512]        --
|    └─Sequential: 2-16                  [-1, 64, 256, 512]        --
|    |    └─Conv2d: 3-22                 [-1, 64, 256, 512]        18,560
├─Sequential: 1-11                       [-1, 4, 1024, 2048]       --
├─PixelShuffle: 1-12                     [-1, 4, 1024, 2048]       --
├─Sequential: 1                          []                        --
|    └─PixelShuffle: 2-17                [-1, 4, 1024, 2048]       --
├─Sequential: 1                          []                        --
|    └─PixelShuffle: 2-18                [-1, 4, 1024, 2048]       --
├─Sequential: 1-13                       [-1, 4, 1024, 2048]       --
|    └─Sequential: 2-19                  [-1, 4, 1024, 2048]       --
|    |    └─Conv2d: 3-23                 [-1, 4, 1024, 2048]       152
|    |    └─LeakyReLU: 3-24              [-1, 4, 1024, 2048]       --
|    └─Sequential: 2-20                  [-1, 4, 1024, 2048]       --
|    |    └─Conv2d: 3-25                 [-1, 4, 1024, 2048]       152
├─Sequential: 1-14                       [-1, 12, 1024, 2048]      --
|    └─Conv2d: 2-21                      [-1, 12, 1024, 2048]      3,624
├─PixelShuffle: 1-15                     [-1, 3, 2048, 4096]       --
==========================================================================================
Total params: 678,360
Trainable params: 678,360
Non-trainable params: 0
Total mult-adds (M): 2.51
==========================================================================================
Input size (MB): 32.00
Forward/backward pass size (MB): 508.00
Params size (MB): 2.59
Estimated Total Size (MB): 542.59
…
